…
.0, warmup_momentum=0.8, warmup_bias_lr=0.1, box=7.5, cls=0.5, dfl=1.5, pose=12.0, kobj=1.0, label_smoothing=0.0, nbs=64, hsv_h=0.015, hsv_s=0.7, hsv_v=0.4, degrees=0.0, translate=0.1, scale=0.5, shear=0.0, perspective=0.0, flipud=0.0, fliplr=0.5, bgr=0.0, mosaic=1.0, mixup=0.0, copy_paste=0.0, auto_augment=randaugment, erasing=0.4, crop_fraction=1.0, cfg=None, tracker=botsort.yaml, save_dir=runs/detect/train4
Overriding model.yaml nc=10 with nc=5

                   from  n    params  module                                       arguments
  0                  -1  1         0  ultralytics.nn.modules.block.Silence         []
  1                  -1  1      1856  ultralytics.nn.modules.conv.Conv             [3, 64, 3, 2]
  2                  -1  1     73984  ultralytics.nn.modules.conv.Conv             [64, 128, 3, 2]
  3                  -1  1    252160  ultralytics.nn.modules.block.RepNCSPELAN4    [128, 256, 128, 64, 2]
  4                  -1  1    164352  ultralytics.nn.modules.block.ADown           [256, 256]
  5                  -1  1   1004032  ultralytics.nn.modules.block.RepNCSPELAN4    [256, 512, 256, 128, 2]
  6                  -1  1    656384  ultralytics.nn.modules.block.ADown           [512, 512]
  7                  -1  1   4006912  ultralytics.nn.modules.block.RepNCSPELAN4    [512, 1024, 512, 256, 2]
  8                  -1  1   2623488  ultralytics.nn.modules.block.ADown           [1024, 1024]
  9                  -1  1   4269056  ultralytics.nn.modules.block.RepNCSPELAN4    [1024, 1024, 512, 256, 2]
 10                   1  1      4160  ultralytics.nn.modules.block.CBLinear        [64, [64]]
 11                   3  1     49344  ultralytics.nn.modules.block.CBLinear        [256, [64, 128]]
 12                   5  1    229824  ultralytics.nn.modules.block.CBLinear        [512, [64, 128, 256]]
 13                   7  1    984000  ultralytics.nn.modules.block.CBLinear        [1024, [64, 128, 256, 512]]
 14                   9  1   2033600  ultralytics.nn.modules.block.CBLinear        [1024, [64, 128, 256, 512, 1024]]
 15                   0  1      1856  ultralytics.nn.modules.conv.Conv             [3, 64, 3, 2]
 16[10, 11, 12, 13, 14, -1]  1         0  ultralytics.nn.modules.block.CBFuse          [[0, 0, 0, 0, 0]]
 17                  -1  1     73984  ultralytics.nn.modules.conv.Conv             [64, 128, 3, 2]
 18[11, 12, 13, 14, -1]  1         0  ultralytics.nn.modules.block.CBFuse          [[1, 1, 1, 1]]
 19                  -1  1    252160  ultralytics.nn.modules.block.RepNCSPELAN4    [128, 256, 128, 64, 2]
 20                  -1  1    164352  ultralytics.nn.modules.block.ADown           [256, 256]
 21    [12, 13, 14, -1]  1         0  ultralytics.nn.modules.block.CBFuse          [[2, 2, 2]]
 22                  -1  1   1004032  ultralytics.nn.modules.block.RepNCSPELAN4    [256, 512, 256, 128, 2]
 23                  -1  1    656384  ultralytics.nn.modules.block.ADown           [512, 512]
 24        [13, 14, -1]  1         0  ultralytics.nn.modules.block.CBFuse          [[3, 3]]
 25                  -1  1   4006912  ultralytics.nn.modules.block.RepNCSPELAN4    [512, 1024, 512, 256, 2]
 26                  -1  1   2623488  ultralytics.nn.modules.block.ADown           [1024, 1024]
 27            [14, -1]  1         0  ultralytics.nn.modules.block.CBFuse          [[4]]
 28                  -1  1   4269056  ultralytics.nn.modules.block.RepNCSPELAN4    [1024, 1024, 512, 256, 2]
 29                  -1  1    787968  ultralytics.nn.modules.block.SPPELAN         [1024, 512, 256]
 30                  -1  1         0  torch.nn.modules.upsampling.Upsample         [None, 2, 'nearest']
 31            [-1, 25]  1         0  ultralytics.nn.modules.conv.Concat           [1]
 32                  -1  1   4005888  ultralytics.nn.modules.block.RepNCSPELAN4    [1536, 512, 512, 256, 2]
 33                  -1  1         0  torch.nn.modules.upsampling.Upsample         [None, 2, 'nearest']
 34            [-1, 22]  1         0  ultralytics.nn.modules.conv.Concat           [1]
 35                  -1  1   1069056  ultralytics.nn.modules.block.RepNCSPELAN4    [1024, 256, 256, 128, 2]
 36                  -1  1    164352  ultralytics.nn.modules.block.ADown           [256, 256]
 37            [-1, 32]  1         0  ultralytics.nn.modules.conv.Concat           [1]
 38                  -1  1   3612672  ultralytics.nn.modules.block.RepNCSPELAN4    [768, 512, 512, 256, 2]
 39                  -1  1    656384  ultralytics.nn.modules.block.ADown           [512, 512]
 40            [-1, 29]  1         0  ultralytics.nn.modules.conv.Concat           [1]
 41                  -1  1  12860416  ultralytics.nn.modules.block.RepNCSPELAN4    [1024, 512, 1024, 512, 2]
 42        [35, 38, 41]  1   5586655  ultralytics.nn.modules.head.Detect           [5, [256, 512, 512]]
YOLOv9e summary: 1225 layers, 58148767 parameters, 58148751 gradients, 192.7 GFLOPs

Transferred 1805/1811 items from pretrained weights
DDP: debug command /home/estudantes/anaconda3/bin/python -m torch.distributed.run --nproc_per_node 2 --master_port 60715 /home/estudantes/.config/Ultralytics/DDP/_temp_et5avh0g126081495137296.py
WARNING:__main__:
*****************************************
…
